audio_deepfake_model.pth (torch, 22769 bytes, 6 tensors)

net.0.weight f4 [16, 1, 3, 3]
00000000: 681d 773c e0e1 f5be 8c39 9abe b2db b73d
00000010: 929b f9be d2e3 b0be 337e 44bd 99e5 9f3c
00000020: 52e3 90be dff0 a13e 59ae dd3e 5283 c83e
00000030: a2d5 4bbd a118 2abe 97fb 303e dd53 b3bd
00000040: 88b6 a4bd fedd d9be a93f 943d 4935 b3bd
00000050: 58ca 943e bfd3 223d af32 efbc 2d0b 603d
00000060: c0e5 8bbe 4f3c af3e 53be 2a3f 5cd1 81bc
00000070: 4829 803e 74e7 813e c90f 283f 9e5b dbbc
00000080: 6314 17be 0143 1cbf 86ca ddbe a47a d1be
00000090: 172d f6be d9b6 e4be 0d01 c8be 700d f3be
000000a0: 9e14 bbbe fdf2 dabe b414 a2be 4cdb 67be
000000b0: 0360 be3d 9b4f 44be 7cb8 3bbe a847 c7be
000000c0: f7d7 d8be c082 cdbe 9cde 8ebe 3289 d53d
000000d0: 43b8 143e d363 bb3e b15a 12be 7a7d 45be
000000e0: ad8a cb3e 24c6 b83e 988a ec3d fc8e bfbe
000000f0: 26ae d5be ba71 5bbe e1f8 2c3f 687c b93e
00000100: 6f6a 813e 0bde 0b3f 9d88 043f f03d 563f
00000110: 42ec ff3e 56a5 213f acc7 263f 9422 423f
00000120: 21c7 d23e e8e7 9b3d d7fb 243e 4204 2dbe
00000130: b77a a33d 8bd8 d83c ff1c a2be 2e90 d2bd
00000140: eb80 3abe a079 ddbc 1548 07be 4e80 343d
00000150: 956b 51be 6434 5bbc 7d11 27be 2317 773e
00000160: c907 f5bd b391 61ba cc3e a1bd a5bf bb3d
00000170: 6819 29bd ed80 f0be 1320 993e c950 7b3e
00000180: da30 083f ea5b 53bd 0a50 cbbe 2c50 403e
00000190: b888 35ba 6447 543e 339a 9bbe 5f96 0cbc
000001a0: a38e 82be 4f83 d13e 60b8 093e fa52 823e
000001b0: d638 ec3d 64dc 343e 7285 fbbd d649 d6be
000001c0: 1810 de3c 1735 143f b14f c33d 8a70 08bd
000001d0: 1f42 2a3d 26a7 b2bd 0330 b33e fee0 84bd
000001e0: b682 fd3e e714 563e 159a 0fbe 1053 0bbf
000001f0: c102 06bf 656a 62be df73 d73e a9fd 37be
00000200: 1181 ffbd e334 2fbe 308d ee3d 36fe 433e
00000210: 3ad5 f1be 71a3 373d f1e6 0f3f 0bec 35be
00000220: 3546 d9bd 0f15 8ebe b1af 00be 15d4 853e
00000230: 7c09 0f3e 375f cbbd 433c adbd 7cbf 0fbe
0.015082695 -0.4802389 -0.3012203 0.089774504 -0.48751503 -0.34548813 -0.047971915 0.01951866
-0.28298432 0.31629083 0.4329708 0.3916269 -0.049764283 -0.16610958 0.17283474 -0.0875623
-0.080426276 -0.4255218 0.07238705 -0.08750398 0.29060626 0.039752718 -0.029198973 0.054698158
-0.27323723 0.342257 0.6669666 -0.0158469 0.25031495 0.25371897 0.65649086 -0.026777085
-0.1475387 -0.6103974 -0.43318576 -0.4091388 -0.48081276 -0.44670752 -0.39063302 -0.4747119
-0.36539167 -0.4276351 -0.3165642 -0.22642249 0.092956565 -0.19170992 -0.18332094 -0.38921857
-0.42352268 -0.40138817 -0.27904212 0.104265586 0.14523415 0.36599597 -0.14292409 -0.19286147
0.3975424 0.3608867 0.11549872 -0.37413776 -0.41734427 -0.21430102 0.6756726 0.36227727
0.25276515 0.54635686 0.51770955 0.8368826 0.49984938 0.6314291 0.65148425 0.7583401
0.41167548 0.07612592 0.16111694 -0.16896155 0.079823904 0.026470443 -0.31662747 -0.10281406
-0.18213241 -0.027035534 -0.13211091 0.044067673 -0.20451196 -0.01337919 -0.16315265 0.2412992
-0.119643755 -0.000860478 -0.07873306 0.09167413 -0.041283995 -0.46973363 0.29907283 0.24542536
0.5319954 -0.051601328 -0.39709502 0.18780583 -0.0006924975 0.20730358 -0.30391082 -0.008580773
-0.25499448 0.40920493 0.1344924 0.2545393 0.11534278 0.17662197 -0.12281312 -0.41853207
0.027107283 0.5789351 0.09536684 -0.03331045 0.041566964 -0.08723287 0.34997568 -0.06488226
0.49513787 0.20906411 -0.14023621 -0.5442362 -0.5234795 -0.22110899 0.4208059 -0.17967857
-0.12475789 -0.17110018 0.11648023 0.19139943 -0.4723299 0.044833604 0.56211764 -0.17765824
-0.10609094 -0.2775044 -0.12567021 0.26138368 0.13968462 -0.0993027 -0.0845876 -0.14037889

net.0.bias f4 [16]
00000000: dbd6 f33e 9eb7 eabe ec83 48bc 94ce 19bf
00000010: db51 d83e 8ec1 89be 55a1 3f3f f692 b5be
00000020: b85c 64bf 5d78 f43c f62a 83bf b469 b3be
00000030: a53e bebe 8a0e 41bf 0ca5 a8be 9e9b 293f
0.4762486 -0.45843214 -0.012238484 -0.6008084 0.4224995 -0.26905483 0.7485555 -0.35463685
-0.8920398 0.02984255 -1.0247486 -0.35041583 -0.3715717 -0.7541281 -0.3293842 0.6625308

net.3.weight f4 [32, 16, 3, 3]
00000000: fbb5 cf3d 72f6 e2bc 0816 88bc 6351 3ebe
00000010: c0a0 90be e111 383d bc1e 2fbf 9bf3 f9be
00000020: ff70 9e3d 6a53 91bd 85da ccbe 3d02 15bf
00000030: b31f b6be 9d96 0abf a1ea a4bd fae3 e6bc
00000040: 6685 7f3d e0cc 043c 1509 ddbe a5f0 3abe
00000050: 90a7 513d 5c3e 2abe 38ba fbbc aac7 b6bd
00000060: 0ae2 c73d 2898 313d 76c2 9a3d c2f6 a3be
00000070: 2f80 0dbf 8da5 91be 90db 13bf 0ddb 10bf
00000080: 3c27 3e3c 1c93 bbbd d130 1c3e 0bd8 e13d
00000090: 242c 063e a10f c53d 49aa 013e 9f7d 4abe
000000a0: a649 89be c57c 45be 270d 78be 5e77 edbe
000000b0: 7789 31bd 857c 9bbc 66ba 3fbd c2b4 583d
000000c0: aa4f 56bd 891e abbd 5bf3 11be 96b8 4f3d
000000d0: 1de1 f23b 7783 b6bb 2b0e 563e d7fd 823e
000000e0: 1037 493e 2e39 ee3d d0b6 8f3d c4e0 ba3d
000000f0: 495a d7bd 6e44 d6bd 5cdb e8bb 5bc7 45be
00000100: 89a3 e4be 2f4a 20be 633e 17bd 3462 473e
00000110: bb28 c53d c98b 4f3e 9704 953e 77a2 293e
00000120: 8b1f e33d c1c5 473e eef0 e3bd 4607 23be
00000130: 8256 57bf 65ac 3cbe 39b7 f4bd e58e d2bd
00000140: c892 69bd d7d8 e93d af6b b4bd fffa 95bc
00000150: c696 11be 013f b1bd 428b 83bc 6e85 1cbe
00000160: 7916 8fbe 20ba ccbd e9b9 4a3e c1fb 8b3e
00000170: 9b98 4e3e d5fd f0bc 549c 223d 238b 013e
00000180: 8b5b 8c3e 3ae9 4b3e ef12 503e bec9 d8bd
00000190: 4998 04be 355d 1cbe 497f 6a3c a96a d6bd
000001a0: fff8 a83d 66d9 223e 0d04 ea3d 4a07 9c3d
000001b0: f98d e6bd 70c7 763e 6cf6 033e e6da 193e
000001c0: a265 0f3d a8cf 933d 64f6 523e 1ce3 773c
000001d0: 2bf9 84bd 69d8 453e d154 42be 689e be3d
000001e0: 9d8d c0be adfd 27bf 08e1 87bc 6fed c7bd
000001f0: fa5c c93d 3b57 fc3d 2178 c4bd 9282 cd3c
00000200: 3f79 c93d 5c5b 2f3e b60f 033d 05bf 2cbd
00000210: 90d7 493e 4e02 d33d f570 96bc f24d 183c
00000220: c8da 65bc f764 dc3d 062c 7abe d191 80be
00000230: 2d86 b9bd 2d91 3ebe f86b fdbe 6271 47be
00000240: d83c 603d f61a c83c 5bfe 57bc 8bed dd3a
00000250: c0ce 4cbd fd02 edbc 6981 ff3c e2be b63c
00000260: 14a4 293d 2f6d cfbe afdb e1be 7f34 8cbe
00000270: 5dc4 c23d 262f 113e 21be 593d 5d88 c1bd
00000280: 7f65 a0bd 8533 3bbe 2504 96bd e04f 5c3d
00000290: 43fe 443c 2c04 06bc 41e6 c9bc 95c5 2fbd
000002a0: 3640 10be 064e 87bd ca40 073b 00fc 01be
000002b0: 5270 a4bd b672 c2bd 5366 e83d c640 5e3d
000002c0: f3aa 3f3d 7d21 fabd a1d2 43be 1f39 e4bd
000002d0: ee6d 753d 6b33 983d 4e61 843d 57fb 98bd
000002e0: bc42 e5bc 9758 6dbc f815 4d3d 7b1d 343d
000002f0: ace0 843d 2e2e bf3d e827 ae3c 6783 f23d
00000300: 9add 99be 9e2e a0be 738f 40be a0de 30bc
00000310: d94b c4bd 4d33 45bd e98b a43e a8dc 733e
00000320: 6fe2 b43e 293c 433e 359d 1a3e 918f 0a3e
00000330: 5230 ce3d aaef 3e3e 19a6 c93d 30db d9be
00000340: 5f0f 15bf 3be5 82be f88f e9bc 405f b8bd
00000350: 790a 65bd a95a 23be 2115 35be d66e b0bc
00000360: f558 d9be 3b6c a4be 11eb afbe b259 113c
00000370: d6e0 eb3c ee45 973c 30fc 11be eebb 15be
00000380: ea47 0ebe 5688 3abd fd93 0ebd 2b0e 00bd
00000390: 637f 61be 6914 6ebe 59a5 92be b0d9 1a3d
000003a0: ef15 ae3c 1245 163e 120f 013d 4c32 5b3d
000003b0: 2b20 073e 3488 e3bd 7a5d 03bd 0895 dcbb
000003c0: 4f09 6abe 755d 59be ff1a 1bbe 4402 3abd
000003d0: dba8 633d 4655 a53d aa4e 793c 82a1 aebc
000003e0: 387b 05bd 164c 913d 6af0 57bc 1943 5c3d
000003f0: 9bb6 74be a2dc fbbd 2089 363d f988 213c
0.10142132 -0.027705405 -0.016612068 -0.18585734 -0.28247643 0.044938926 -0.6840627 -0.4881867
0.07736396 -0.07095988 -0.40010467 -0.5820654 -0.3557106 -0.5413607 -0.080525644 -0.02818488
0.062383078 0.008105487 -0.43170992 -0.18255861 0.05118519 -0.1662535 -0.030728444 -0.08924802
0.097599104 0.043357998 0.07556622 -0.320242 -0.5527372 -0.28446618 -0.577569 -0.56584245
0.011606034 -0.09158918 0.15252997 0.11027535 0.13102776 0.096221216 0.12662615 -0.19774483
-0.26814002 -0.19285877 -0.24223767 -0.46380132 -0.043343987 -0.018980274 -0.046808623 0.05290676
-0.052322067 -0.083554335 -0.14252989 0.050713144 0.0074120895 -0.005569871 0.20903842 0.2558429
0.19649911 0.11632 0.070172906 0.09124902 -0.105152674 -0.10462271 -0.007106228 -0.1931433
-0.44656017 -0.15653299 -0.03692473 0.19471055 0.09626909 0.20268168 0.29105064 0.16565882
0.11090001 0.19509031 -0.11129938 -0.15920743 -0.84116375 -0.18425138 -0.119490094 -0.10281161
-0.057024747 0.11418312 -0.088096015 -0.01830816 -0.14217672 -0.08654595 -0.016057614 -0.15285274
-0.27946833 -0.09996438 0.19797482 0.2734051 0.20175402 -0.029417912 0.039699867 0.12650733
0.27413592 0.19913188 0.20319723 -0.10585354 -0.12948717 -0.1526993 0.014312574 -0.104695626
0.08250617 0.15903243 0.11426554 0.07618578 -0.11257548 0.24099517 0.12886971 0.1502491
0.035009034 0.07217342 0.20601803 0.015129831 -0.064928375 0.19320835 -0.18977667 0.09307557
-0.37608042 -0.65621454 -0.016586795 -0.09762084 0.09832187 0.123213254 -0.09593225 0.025086675
0.09837579 0.17124695 0.031997405 -0.042174358 0.19711137 0.10303174 -0.018364409 0.009295927
-0.014029212 0.10761445 -0.24430856 -0.2511125 -0.09058795 -0.18610068 -0.49496436 -0.19476846
0.054745525 0.024426918 -0.013183202 0.0016931755 -0.05000186 -0.028932089 0.031189637 0.022307817
0.041416243 -0.40512988 -0.44112918 -0.273838 0.095101096 0.14178142 0.053159837 -0.09449837
-0.07831859 -0.18281372 -0.07325009 0.053787112 0.012023511 -0.008179706 -0.024645926 -0.04291304
-0.14086995 -0.06606679 0.0020637983 -0.12693787 -0.08029236 -0.094945356 0.11347642 0.05426099
0.04679389 -0.12213419 -0.19123317 -0.111437075 0.05991929 0.07431682 0.06463872 -0.07469814
-0.027985923 -0.0144864535 0.05006978 0.043973427 0.06488165 0.0933498 0.021259263 0.11841469
-0.3005188 -0.31285566 -0.18804722 -0.010795265 -0.09584779 -0.048144627 0.32137993 0.23814642
0.35329005 0.19065918 0.15099032 0.13531329 0.1006781 0.18646112 0.09846134 -0.4255004
-0.5822658 -0.25565514 -0.028511032 -0.090025425 -0.05591819 -0.15952553 -0.17683841 -0.021537226
-0.4245068 -0.32113823 -0.3435903 0.008871483 0.028793734 0.018465962 -0.14256358 -0.1462247
-0.1389462 -0.045540176 -0.0348091 -0.03126351 -0.2202125 -0.23249973 -0.28641775 0.03780526
0.021250693 0.14674786 0.031508513 0.053514764 0.13195865 -0.11109963 -0.032071568 -0.006731633
-0.22855113 -0.21227057 -0.15147017 -0.045412317 0.055580955 0.08072905 0.015216509 -0.021317247
-0.032588214 0.0709459 -0.013179878 0.053774927 -0.23897783 -0.12297942 0.044564366 0.009859317

net.3.bias f4 [32]
00000000: 7168 45bf feac bc3e c50c 27bf 9235 fb3e
00000010: a82a 933e 66fd 7abf 3817 59bf fabb 89bf
00000020: 6ee5 98bd 353b 2fbf eb96 fc3e 5681 81bf
00000030: 06e4 d6be 4548 a13e c7a2 e1bd a029 bc3e
00000040: f35f 983e 4e73 0d3f ae9e ccbe fdf3 f23e
00000050: 83f3 d2be a463 943e 6b69 eb3c 60b2 833e
00000060: bc56 bc3c 4963 45bf 557b 28bf 4e3d e73e
00000070: bf3f 363e 124e 733e 3a0b 0a3f 6d91 d73e
-0.7711249 0.36850733 -0.6525386 0.49064308 0.28743482 -0.98042905 -0.84801054 -1.0760491
-0.07465635 -0.6844972 0.4933389 -1.0117595 -0.41970843 0.3150045 -0.110173754 0.36750507
0.29760703 0.55254066 -0.39964813 0.47451773 -0.4120141 0.2898227 0.02873679 0.25722027
0.022990577 -0.7710462 -0.6581319 0.4516396 0.17797755 0.2376025 0.5392338 0.4210314

net.8.weight f4 [2, 32]
00000000: 36b5 fabe 2b9d 803e 6f11 f4bd 8959 dd3e
00000010: b7ee 7c3e 3f96 fbbe cd9a 36be a455 34bf
00000020: 316b 0f3e 76e1 c6be 4ef4 213e 88b7 c0be
00000030: 644a 09bf 012d c63e 88e1 9abb d31a e53e
00000040: da87 ee3e 1ffd b63e 5caf 5fbf 9187 493f
00000050: dbc2 85be d529 ec3e f008 fc3d c106 dc3e
00000060: 1090 a23d ccc5 debe 594d e8bd 2672 623d
00000070: bd54 bf3e f5d4 2c3f d983 b13e 4b49 bb3e
00000080: 7a8d 153f f5f7 29be 3490 123e fe3f f8be
00000090: f0c0 83be eb32 e03e 5873 553e 0009 373f
000000a0: 21e4 d93d 2711 b83e ad9f 87be 9425 f93e
000000b0: 225b fc3e 9c9f b9be 993f 63be feef c4be
000000c0: f24b c6be 4855 99be ab48 653f 2bbb 39bf
000000d0: fe53 c53e 76ce 80be 7047 0b3e 1800 f9be
000000e0: d9a7 70bc 6823 093f 13ef 9b3d ce9c 57be
000000f0: c41a 28bf efaa 38bf e4c7 05bf 325f 70bd
-0.48966378 0.2511991 -0.11917388 0.43232372 0.24700437 -0.49138066 -0.1783249 -0.7044318
0.14005734 -0.38843888 0.15815851 -0.37640023 -0.53629136 0.3870621 -0.0047265925 0.44747028
0.46588022 0.3573999 -0.8737695 0.7872248 -0.26125225 0.46125665 0.12306392 0.42973903
0.07937634 -0.43510282 -0.11342878 0.05528464 0.37369338 0.67512447 0.34670904 0.36579356
0.58419 -0.16598494 0.14312822 -0.48486322 -0.25733137 0.43788847 0.20844781 0.7149811
0.10639215 0.35950586 -0.2648901 0.48661482 0.4928828 -0.36254585 -0.2219223 -0.3846435
-0.38729817 -0.29947877 0.8956401 -0.7255122 0.38540643 -0.25157517 0.1360147 -0.48632884
-0.0146884555 0.5356965 0.07613959 -0.2105591 -0.6566584 -0.72135824 -0.52258134 -0.058684535

net.8.bias f4 [2]
00000000: 6b79 c63e 3766 22bf
0.3876451 -0.6343722
